{
    "modelTopology": {
        "backend": "tensorflow",
        "keras_version": "2.1.3",
        "model_config": {
            "class_name": "Model",
            "config": {
                "input_layers": [
                    [
                        "input_1",
                        0,
                        0
                    ]
                ],
                "layers": [
                    {
                        "class_name": "InputLayer",
                        "config": {
                            "batch_input_shape": [
                                null,
                                608,
                                608,
                                3
                            ],
                            "dtype": "float32",
                            "name": "input_1",
                            "sparse": false
                        },
                        "inbound_nodes": [],
                        "name": "input_1"
                    },
                    {
                        "class_name": "Conv2D",
                        "config": {
                            "activation": "linear",
                            "activity_regularizer": null,
                            "bias_constraint": null,
                            "bias_initializer": {
                                "class_name": "Zeros",
                                "config": {}
                            },
                            "bias_regularizer": null,
                            "data_format": "channels_last",
                            "dilation_rate": [
                                1,
                                1
                            ],
                            "filters": 32,
                            "kernel_constraint": null,
                            "kernel_initializer": {
                                "class_name": "VarianceScaling",
                                "config": {
                                    "distribution": "uniform",
                                    "mode": "fan_avg",
                                    "scale": 1.0,
                                    "seed": null
                                }
                            },
                            "kernel_regularizer": {
                                "class_name": "L1L2",
                                "config": {
                                    "l1": 0.0,
                                    "l2": 0.0005000000237487257
                                }
                            },
                            "kernel_size": [
                                3,
                                3
                            ],
                            "name": "conv2d_1",
                            "padding": "same",
                            "strides": [
                                1,
                                1
                            ],
                            "trainable": true,
                            "use_bias": false
                        },
                        "inbound_nodes": [
                            [
                                [
                                    "input_1",
                                    0,
                                    0,
                                    {}
                                ]
                            ]
                        ],
                        "name": "conv2d_1"
                    },
                    {
                        "class_name": "BatchNormalization",
                        "config": {
                            "axis": -1,
                            "beta_constraint": null,
                            "beta_initializer": {
                                "class_name": "Zeros",
                                "config": {}
                            },
                            "beta_regularizer": null,
                            "center": true,
                            "epsilon": 0.001,
                            "gamma_constraint": null,
                            "gamma_initializer": {
                                "class_name": "Ones",
                                "config": {}
                            },
                            "gamma_regularizer": null,
                            "momentum": 0.99,
                            "moving_mean_initializer": {
                                "class_name": "Zeros",
                                "config": {}
                            },
                            "moving_variance_initializer": {
                                "class_name": "Ones",
                                "config": {}
                            },
                            "name": "batch_normalization_1",
                            "scale": true,
                            "trainable": true
                        },
                        "inbound_nodes": [
                            [
                                [
                                    "conv2d_1",
                                    0,
                                    0,
                                    {}
                                ]
                            ]
                        ],
                        "name": "batch_normalization_1"
                    },
                    {
                        "class_name": "Activation",
                        "config": {
                            "activation": "relu",
                            "name": "leaky_re_lu_1",
                            "trainable": true
                        },
                        "inbound_nodes": [
                            [
                                [
                                    "batch_normalization_1",
                                    0,
                                    0,
                                    {}
                                ]
                            ]
                        ],
                        "name": "leaky_re_lu_1"
                    },
                    {
                        "class_name": "MaxPooling2D",
                        "config": {
                            "data_format": "channels_last",
                            "name": "max_pooling2d_1",
                            "padding": "same",
                            "pool_size": [
                                2,
                                2
                            ],
                            "strides": [
                                2,
                                2
                            ],
                            "trainable": true
                        },
                        "inbound_nodes": [
                            [
                                [
                                    "leaky_re_lu_1",
                                    0,
                                    0,
                                    {}
                                ]
                            ]
                        ],
                        "name": "max_pooling2d_1"
                    },
                    {
                        "class_name": "Conv2D",
                        "config": {
                            "activation": "linear",
                            "activity_regularizer": null,
                            "bias_constraint": null,
                            "bias_initializer": {
                                "class_name": "Zeros",
                                "config": {}
                            },
                            "bias_regularizer": null,
                            "data_format": "channels_last",
                            "dilation_rate": [
                                1,
                                1
                            ],
                            "filters": 64,
                            "kernel_constraint": null,
                            "kernel_initializer": {
                                "class_name": "VarianceScaling",
                                "config": {
                                    "distribution": "uniform",
                                    "mode": "fan_avg",
                                    "scale": 1.0,
                                    "seed": null
                                }
                            },
                            "kernel_regularizer": {
                                "class_name": "L1L2",
                                "config": {
                                    "l1": 0.0,
                                    "l2": 0.0005000000237487257
                                }
                            },
                            "kernel_size": [
                                3,
                                3
                            ],
                            "name": "conv2d_2",
                            "padding": "same",
                            "strides": [
                                1,
                                1
                            ],
                            "trainable": true,
                            "use_bias": false
                        },
                        "inbound_nodes": [
                            [
                                [
                                    "max_pooling2d_1",
                                    0,
                                    0,
                                    {}
                                ]
                            ]
                        ],
                        "name": "conv2d_2"
                    },
                    {
                        "class_name": "BatchNormalization",
                        "config": {
                            "axis": -1,
                            "beta_constraint": null,
                            "beta_initializer": {
                                "class_name": "Zeros",
                                "config": {}
                            },
                            "beta_regularizer": null,
                            "center": true,
                            "epsilon": 0.001,
                            "gamma_constraint": null,
                            "gamma_initializer": {
                                "class_name": "Ones",
                                "config": {}
                            },
                            "gamma_regularizer": null,
                            "momentum": 0.99,
                            "moving_mean_initializer": {
                                "class_name": "Zeros",
                                "config": {}
                            },
                            "moving_variance_initializer": {
                                "class_name": "Ones",
                                "config": {}
                            },
                            "name": "batch_normalization_2",
                            "scale": true,
                            "trainable": true
                        },
                        "inbound_nodes": [
                            [
                                [
                                    "conv2d_2",
                                    0,
                                    0,
                                    {}
                                ]
                            ]
                        ],
                        "name": "batch_normalization_2"
                    },
                    {
                        "class_name": "Activation",
                        "config": {
                            "activation": "relu",
                            "name": "leaky_re_lu_2",
                            "trainable": true
                        },
                        "inbound_nodes": [
                            [
                                [
                                    "batch_normalization_2",
                                    0,
                                    0,
                                    {}
                                ]
                            ]
                        ],
                        "name": "leaky_re_lu_2"
                    },
                    {
                        "class_name": "MaxPooling2D",
                        "config": {
                            "data_format": "channels_last",
                            "name": "max_pooling2d_2",
                            "padding": "same",
                            "pool_size": [
                                2,
                                2
                            ],
                            "strides": [
                                2,
                                2
                            ],
                            "trainable": true
                        },
                        "inbound_nodes": [
                            [
                                [
                                    "leaky_re_lu_2",
                                    0,
                                    0,
                                    {}
                                ]
                            ]
                        ],
                        "name": "max_pooling2d_2"
                    },
                    {
                        "class_name": "Conv2D",
                        "config": {
                            "activation": "linear",
                            "activity_regularizer": null,
                            "bias_constraint": null,
                            "bias_initializer": {
                                "class_name": "Zeros",
                                "config": {}
                            },
                            "bias_regularizer": null,
                            "data_format": "channels_last",
                            "dilation_rate": [
                                1,
                                1
                            ],
                            "filters": 128,
                            "kernel_constraint": null,
                            "kernel_initializer": {
                                "class_name": "VarianceScaling",
                                "config": {
                                    "distribution": "uniform",
                                    "mode": "fan_avg",
                                    "scale": 1.0,
                                    "seed": null
                                }
                            },
                            "kernel_regularizer": {
                                "class_name": "L1L2",
                                "config": {
                                    "l1": 0.0,
                                    "l2": 0.0005000000237487257
                                }
                            },
                            "kernel_size": [
                                3,
                                3
                            ],
                            "name": "conv2d_3",
                            "padding": "same",
                            "strides": [
                                1,
                                1
                            ],
                            "trainable": true,
                            "use_bias": false
                        },
                        "inbound_nodes": [
                            [
                                [
                                    "max_pooling2d_2",
                                    0,
                                    0,
                                    {}
                                ]
                            ]
                        ],
                        "name": "conv2d_3"
                    },
                    {
                        "class_name": "BatchNormalization",
                        "config": {
                            "axis": -1,
                            "beta_constraint": null,
                            "beta_initializer": {
                                "class_name": "Zeros",
                                "config": {}
                            },
                            "beta_regularizer": null,
                            "center": true,
                            "epsilon": 0.001,
                            "gamma_constraint": null,
                            "gamma_initializer": {
                                "class_name": "Ones",
                                "config": {}
                            },
                            "gamma_regularizer": null,
                            "momentum": 0.99,
                            "moving_mean_initializer": {
                                "class_name": "Zeros",
                                "config": {}
                            },
                            "moving_variance_initializer": {
                                "class_name": "Ones",
                                "config": {}
                            },
                            "name": "batch_normalization_3",
                            "scale": true,
                            "trainable": true
                        },
                        "inbound_nodes": [
                            [
                                [
                                    "conv2d_3",
                                    0,
                                    0,
                                    {}
                                ]
                            ]
                        ],
                        "name": "batch_normalization_3"
                    },
                    {
                        "class_name": "Activation",
                        "config": {
                            "activation": "relu",
                            "name": "leaky_re_lu_3",
                            "trainable": true
                        },
                        "inbound_nodes": [
                            [
                                [
                                    "batch_normalization_3",
                                    0,
                                    0,
                                    {}
                                ]
                            ]
                        ],
                        "name": "leaky_re_lu_3"
                    },
                    {
                        "class_name": "Conv2D",
                        "config": {
                            "activation": "linear",
                            "activity_regularizer": null,
                            "bias_constraint": null,
                            "bias_initializer": {
                                "class_name": "Zeros",
                                "config": {}
                            },
                            "bias_regularizer": null,
                            "data_format": "channels_last",
                            "dilation_rate": [
                                1,
                                1
                            ],
                            "filters": 64,
                            "kernel_constraint": null,
                            "kernel_initializer": {
                                "class_name": "VarianceScaling",
                                "config": {
                                    "distribution": "uniform",
                                    "mode": "fan_avg",
                                    "scale": 1.0,
                                    "seed": null
                                }
                            },
                            "kernel_regularizer": {
                                "class_name": "L1L2",
                                "config": {
                                    "l1": 0.0,
                                    "l2": 0.0005000000237487257
                                }
                            },
                            "kernel_size": [
                                1,
                                1
                            ],
                            "name": "conv2d_4",
                            "padding": "same",
                            "strides": [
                                1,
                                1
                            ],
                            "trainable": true,
                            "use_bias": false
                        },
                        "inbound_nodes": [
                            [
                                [
                                    "leaky_re_lu_3",
                                    0,
                                    0,
                                    {}
                                ]
                            ]
                        ],
                        "name": "conv2d_4"
                    },
                    {
                        "class_name": "BatchNormalization",
                        "config": {
                            "axis": -1,
                            "beta_constraint": null,
                            "beta_initializer": {
                                "class_name": "Zeros",
                                "config": {}
                            },
                            "beta_regularizer": null,
                            "center": true,
                            "epsilon": 0.001,
                            "gamma_constraint": null,
                            "gamma_initializer": {
                                "class_name": "Ones",
                                "config": {}
                            },
                            "gamma_regularizer": null,
                            "momentum": 0.99,
                            "moving_mean_initializer": {
                                "class_name": "Zeros",
                                "config": {}
                            },
                            "moving_variance_initializer": {
                                "class_name": "Ones",
                                "config": {}
                            },
                            "name": "batch_normalization_4",
                            "scale": true,
                            "trainable": true
                        },
                        "inbound_nodes": [
                            [
                                [
                                    "conv2d_4",
                                    0,
                                    0,
                                    {}
                                ]
                            ]
                        ],
                        "name": "batch_normalization_4"
                    },
                    {
                        "class_name": "Activation",
                        "config": {
                            "activation": "relu",
                            "name": "leaky_re_lu_4",
                            "trainable": true
                        },
                        "inbound_nodes": [
                            [
                                [
                                    "batch_normalization_4",
                                    0,
                                    0,
                                    {}
                                ]
                            ]
                        ],
                        "name": "leaky_re_lu_4"
                    },
                    {
                        "class_name": "Conv2D",
                        "config": {
                            "activation": "linear",
                            "activity_regularizer": null,
                            "bias_constraint": null,
                            "bias_initializer": {
                                "class_name": "Zeros",
                                "config": {}
                            },
                            "bias_regularizer": null,
                            "data_format": "channels_last",
                            "dilation_rate": [
                                1,
                                1
                            ],
                            "filters": 128,
                            "kernel_constraint": null,
                            "kernel_initializer": {
                                "class_name": "VarianceScaling",
                                "config": {
                                    "distribution": "uniform",
                                    "mode": "fan_avg",
                                    "scale": 1.0,
                                    "seed": null
                                }
                            },
                            "kernel_regularizer": {
                                "class_name": "L1L2",
                                "config": {
                                    "l1": 0.0,
                                    "l2": 0.0005000000237487257
                                }
                            },
                            "kernel_size": [
                                3,
                                3
                            ],
                            "name": "conv2d_5",
                            "padding": "same",
                            "strides": [
                                1,
                                1
                            ],
                            "trainable": true,
                            "use_bias": false
                        },
                        "inbound_nodes": [
                            [
                                [
                                    "leaky_re_lu_4",
                                    0,
                                    0,
                                    {}
                                ]
                            ]
                        ],
                        "name": "conv2d_5"
                    },
                    {
                        "class_name": "BatchNormalization",
                        "config": {
                            "axis": -1,
                            "beta_constraint": null,
                            "beta_initializer": {
                                "class_name": "Zeros",
                                "config": {}
                            },
                            "beta_regularizer": null,
                            "center": true,
                            "epsilon": 0.001,
                            "gamma_constraint": null,
                            "gamma_initializer": {
                                "class_name": "Ones",
                                "config": {}
                            },
                            "gamma_regularizer": null,
                            "momentum": 0.99,
                            "moving_mean_initializer": {
                                "class_name": "Zeros",
                                "config": {}
                            },
                            "moving_variance_initializer": {
                                "class_name": "Ones",
                                "config": {}
                            },
                            "name": "batch_normalization_5",
                            "scale": true,
                            "trainable": true
                        },
                        "inbound_nodes": [
                            [
                                [
                                    "conv2d_5",
                                    0,
                                    0,
                                    {}
                                ]
                            ]
                        ],
                        "name": "batch_normalization_5"
                    },
                    {
                        "class_name": "Activation",
"config": {
"activation": "relu",
                            "name": "leaky_re_lu_5",
                            "trainable": true
                        },
                        "inbound_nodes": [
                            [
                                [
                                    "batch_normalization_5",
                                    0,
                                    0,
                                    {}
                                ]
                            ]
                        ],
                        "name": "leaky_re_lu_5"
                    },
                    {
                        "class_name": "MaxPooling2D",
                        "config": {
                            "data_format": "channels_last",
                            "name": "max_pooling2d_3",
                            "padding": "same",
                            "pool_size": [
                                2,
                                2
                            ],
                            "strides": [
                                2,
                                2
                            ],
                            "trainable": true
                        },
                        "inbound_nodes": [
                            [
                                [
                                    "leaky_re_lu_5",
                                    0,
                                    0,
                                    {}
                                ]
                            ]
                        ],
                        "name": "max_pooling2d_3"
                    },
                    {
                        "class_name": "Conv2D",
                        "config": {
                            "activation": "linear",
                            "activity_regularizer": null,
                            "bias_constraint": null,
                            "bias_initializer": {
                                "class_name": "Zeros",
                                "config": {}
                            },
                            "bias_regularizer": null,
                            "data_format": "channels_last",
                            "dilation_rate": [
                                1,
                                1
                            ],
                            "filters": 256,
                            "kernel_constraint": null,
                            "kernel_initializer": {
                                "class_name": "VarianceScaling",
                                "config": {
                                    "distribution": "uniform",
                                    "mode": "fan_avg",
                                    "scale": 1.0,
                                    "seed": null
                                }
                            },
                            "kernel_regularizer": {
                                "class_name": "L1L2",
                                "config": {
                                    "l1": 0.0,
                                    "l2": 0.0005000000237487257
                                }
                            },
                            "kernel_size": [
                                3,
                                3
                            ],
                            "name": "conv2d_6",
                            "padding": "same",
                            "strides": [
                                1,
                                1
                            ],
                            "trainable": true,
                            "use_bias": false
                        },
                        "inbound_nodes": [
                            [
                                [
                                    "max_pooling2d_3",
                                    0,
                                    0,
                                    {}
                                ]
                            ]
                        ],
                        "name": "conv2d_6"
                    },
                    {
                        "class_name": "BatchNormalization",
                        "config": {
                            "axis": -1,
                            "beta_constraint": null,
                            "beta_initializer": {
                                "class_name": "Zeros",
                                "config": {}
                            },
                            "beta_regularizer": null,
                            "center": true,
                            "epsilon": 0.001,
                            "gamma_constraint": null,
                            "gamma_initializer": {
                                "class_name": "Ones",
                                "config": {}
                            },
                            "gamma_regularizer": null,
                            "momentum": 0.99,
                            "moving_mean_initializer": {
                                "class_name": "Zeros",
                                "config": {}
                            },
                            "moving_variance_initializer": {
                                "class_name": "Ones",
                                "config": {}
                            },
                            "name": "batch_normalization_6",
                            "scale": true,
                            "trainable": true
                        },
                        "inbound_nodes": [
                            [
                                [
                                    "conv2d_6",
                                    0,
                                    0,
                                    {}
                                ]
                            ]
                        ],
                        "name": "batch_normalization_6"
                    },
                    {
                        "class_name": "Activation",
"config": {
"activation": "relu",
                            "name": "leaky_re_lu_6",
                            "trainable": true
                        },
                        "inbound_nodes": [
                            [
                                [
                                    "batch_normalization_6",
                                    0,
                                    0,
                                    {}
                                ]
                            ]
                        ],
                        "name": "leaky_re_lu_6"
                    },
                    {
                        "class_name": "Conv2D",
                        "config": {
                            "activation": "linear",
                            "activity_regularizer": null,
                            "bias_constraint": null,
                            "bias_initializer": {
                                "class_name": "Zeros",
                                "config": {}
                            },
                            "bias_regularizer": null,
                            "data_format": "channels_last",
                            "dilation_rate": [
                                1,
                                1
                            ],
                            "filters": 128,
                            "kernel_constraint": null,
                            "kernel_initializer": {
                                "class_name": "VarianceScaling",
                                "config": {
                                    "distribution": "uniform",
                                    "mode": "fan_avg",
                                    "scale": 1.0,
                                    "seed": null
                                }
                            },
                            "kernel_regularizer": {
                                "class_name": "L1L2",
                                "config": {
                                    "l1": 0.0,
                                    "l2": 0.0005000000237487257
                                }
                            },
                            "kernel_size": [
                                1,
                                1
                            ],
                            "name": "conv2d_7",
                            "padding": "same",
                            "strides": [
                                1,
                                1
                            ],
                            "trainable": true,
                            "use_bias": false
                        },
                        "inbound_nodes": [
                            [
                                [
                                    "leaky_re_lu_6",
                                    0,
                                    0,
                                    {}
                                ]
                            ]
                        ],
                        "name": "conv2d_7"
                    },
                    {
                        "class_name": "BatchNormalization",
                        "config": {
                            "axis": -1,
                            "beta_constraint": null,
                            "beta_initializer": {
                                "class_name": "Zeros",
                                "config": {}
                            },
                            "beta_regularizer": null,
                            "center": true,
                            "epsilon": 0.001,
                            "gamma_constraint": null,
                            "gamma_initializer": {
                                "class_name": "Ones",
                                "config": {}
                            },
                            "gamma_regularizer": null,
                            "momentum": 0.99,
                            "moving_mean_initializer": {
                                "class_name": "Zeros",
                                "config": {}
                            },
                            "moving_variance_initializer": {
                                "class_name": "Ones",
                                "config": {}
                            },
                            "name": "batch_normalization_7",
                            "scale": true,
                            "trainable": true
                        },
                        "inbound_nodes": [
                            [
                                [
                                    "conv2d_7",
                                    0,
                                    0,
                                    {}
                                ]
                            ]
                        ],
                        "name": "batch_normalization_7"
                    },
                    {
                        "class_name": "Activation",
"config": {
"activation": "relu",
                            "name": "leaky_re_lu_7",
                            "trainable": true
                        },
                        "inbound_nodes": [
                            [
                                [
                                    "batch_normalization_7",
                                    0,
                                    0,
                                    {}
                                ]
                            ]
                        ],
                        "name": "leaky_re_lu_7"
                    },
                    {
                        "class_name": "Conv2D",
                        "config": {
                            "activation": "linear",
                            "activity_regularizer": null,
                            "bias_constraint": null,
                            "bias_initializer": {
                                "class_name": "Zeros",
                                "config": {}
                            },
                            "bias_regularizer": null,
                            "data_format": "channels_last",
                            "dilation_rate": [
                                1,
                                1
                            ],
                            "filters": 256,
                            "kernel_constraint": null,
                            "kernel_initializer": {
                                "class_name": "VarianceScaling",
                                "config": {
                                    "distribution": "uniform",
                                    "mode": "fan_avg",
                                    "scale": 1.0,
                                    "seed": null
                                }
                            },
                            "kernel_regularizer": {
                                "class_name": "L1L2",
                                "config": {
                                    "l1": 0.0,
                                    "l2": 0.0005000000237487257
                                }
                            },
                            "kernel_size": [
                                3,
                                3
                            ],
                            "name": "conv2d_8",
                            "padding": "same",
                            "strides": [
                                1,
                                1
                            ],
                            "trainable": true,
                            "use_bias": false
                        },
                        "inbound_nodes": [
                            [
                                [
                                    "leaky_re_lu_7",
                                    0,
                                    0,
                                    {}
                                ]
                            ]
                        ],
                        "name": "conv2d_8"
                    },
                    {
                        "class_name": "BatchNormalization",
                        "config": {
                            "axis": -1,
                            "beta_constraint": null,
                            "beta_initializer": {
                                "class_name": "Zeros",
                                "config": {}
                            },
                            "beta_regularizer": null,
                            "center": true,
                            "epsilon": 0.001,
                            "gamma_constraint": null,
                            "gamma_initializer": {
                                "class_name": "Ones",
                                "config": {}
                            },
                            "gamma_regularizer": null,
                            "momentum": 0.99,
                            "moving_mean_initializer": {
                                "class_name": "Zeros",
                                "config": {}
                            },
                            "moving_variance_initializer": {
                                "class_name": "Ones",
                                "config": {}
                            },
                            "name": "batch_normalization_8",
                            "scale": true,
                            "trainable": true
                        },
                        "inbound_nodes": [
                            [
                                [
                                    "conv2d_8",
                                    0,
                                    0,
                                    {}
                                ]
                            ]
                        ],
                        "name": "batch_normalization_8"
                    },
                    {
                        "class_name": "Activation",
"config": {
"activation": "relu",
                            "name": "leaky_re_lu_8",
                            "trainable": true
                        },
                        "inbound_nodes": [
                            [
                                [
                                    "batch_normalization_8",
                                    0,
                                    0,
                                    {}
                                ]
                            ]
                        ],
                        "name": "leaky_re_lu_8"
                    },
                    {
                        "class_name": "MaxPooling2D",
                        "config": {
                            "data_format": "channels_last",
                            "name": "max_pooling2d_4",
                            "padding": "same",
                            "pool_size": [
                                2,
                                2
                            ],
                            "strides": [
                                2,
                                2
                            ],
                            "trainable": true
                        },
                        "inbound_nodes": [
                            [
                                [
                                    "leaky_re_lu_8",
                                    0,
                                    0,
                                    {}
                                ]
                            ]
                        ],
                        "name": "max_pooling2d_4"
                    },
                    {
                        "class_name": "Conv2D",
                        "config": {
                            "activation": "linear",
                            "activity_regularizer": null,
                            "bias_constraint": null,
                            "bias_initializer": {
                                "class_name": "Zeros",
                                "config": {}
                            },
                            "bias_regularizer": null,
                            "data_format": "channels_last",
                            "dilation_rate": [
                                1,
                                1
                            ],
                            "filters": 512,
                            "kernel_constraint": null,
                            "kernel_initializer": {
                                "class_name": "VarianceScaling",
                                "config": {
                                    "distribution": "uniform",
                                    "mode": "fan_avg",
                                    "scale": 1.0,
                                    "seed": null
                                }
                            },
                            "kernel_regularizer": {
                                "class_name": "L1L2",
                                "config": {
                                    "l1": 0.0,
                                    "l2": 0.0005000000237487257
                                }
                            },
                            "kernel_size": [
                                3,
                                3
                            ],
                            "name": "conv2d_9",
                            "padding": "same",
                            "strides": [
                                1,
                                1
                            ],
                            "trainable": true,
                            "use_bias": false
                        },
                        "inbound_nodes": [
                            [
                                [
                                    "max_pooling2d_4",
                                    0,
                                    0,
                                    {}
                                ]
                            ]
                        ],
                        "name": "conv2d_9"
                    },
                    {
                        "class_name": "BatchNormalization",
                        "config": {
                            "axis": -1,
                            "beta_constraint": null,
                            "beta_initializer": {
                                "class_name": "Zeros",
                                "config": {}
                            },
                            "beta_regularizer": null,
                            "center": true,
                            "epsilon": 0.001,
                            "gamma_constraint": null,
                            "gamma_initializer": {
                                "class_name": "Ones",
                                "config": {}
                            },
                            "gamma_regularizer": null,
                            "momentum": 0.99,
                            "moving_mean_initializer": {
                                "class_name": "Zeros",
                                "config": {}
                            },
                            "moving_variance_initializer": {
                                "class_name": "Ones",
                                "config": {}
                            },
                            "name": "batch_normalization_9",
                            "scale": true,
                            "trainable": true
                        },
                        "inbound_nodes": [
                            [
                                [
                                    "conv2d_9",
                                    0,
                                    0,
                                    {}
                                ]
                            ]
                        ],
                        "name": "batch_normalization_9"
                    },
                    {
                        "class_name": "Activation",
"config": {
"activation": "relu",
                            "name": "leaky_re_lu_9",
                            "trainable": true
                        },
                        "inbound_nodes": [
                            [
                                [
                                    "batch_normalization_9",
                                    0,
                                    0,
                                    {}
                                ]
                            ]
                        ],
                        "name": "leaky_re_lu_9"
                    },
                    {
                        "class_name": "Conv2D",
                        "config": {
                            "activation": "linear",
                            "activity_regularizer": null,
                            "bias_constraint": null,
                            "bias_initializer": {
                                "class_name": "Zeros",
                                "config": {}
                            },
                            "bias_regularizer": null,
                            "data_format": "channels_last",
                            "dilation_rate": [
                                1,
                                1
                            ],
                            "filters": 256,
                            "kernel_constraint": null,
                            "kernel_initializer": {
                                "class_name": "VarianceScaling",
                                "config": {
                                    "distribution": "uniform",
                                    "mode": "fan_avg",
                                    "scale": 1.0,
                                    "seed": null
                                }
                            },
                            "kernel_regularizer": {
                                "class_name": "L1L2",
                                "config": {
                                    "l1": 0.0,
                                    "l2": 0.0005000000237487257
                                }
                            },
                            "kernel_size": [
                                1,
                                1
                            ],
                            "name": "conv2d_10",
                            "padding": "same",
                            "strides": [
                                1,
                                1
                            ],
                            "trainable": true,
                            "use_bias": false
                        },
                        "inbound_nodes": [
                            [
                                [
                                    "leaky_re_lu_9",
                                    0,
                                    0,
                                    {}
                                ]
                            ]
                        ],
                        "name": "conv2d_10"
                    },
                    {
                        "class_name": "BatchNormalization",
                        "config": {
                            "axis": -1,
                            "beta_constraint": null,
                            "beta_initializer": {
                                "class_name": "Zeros",
                                "config": {}
                            },
                            "beta_regularizer": null,
                            "center": true,
                            "epsilon": 0.001,
                            "gamma_constraint": null,
                            "gamma_initializer": {
                                "class_name": "Ones",
                                "config": {}
                            },
                            "gamma_regularizer": null,
                            "momentum": 0.99,
                            "moving_mean_initializer": {
                                "class_name": "Zeros",
                                "config": {}
                            },
                            "moving_variance_initializer": {
                                "class_name": "Ones",
                                "config": {}
                            },
                            "name": "batch_normalization_10",
                            "scale": true,
                            "trainable": true
                        },
                        "inbound_nodes": [
                            [
                                [
                                    "conv2d_10",
                                    0,
                                    0,
                                    {}
                                ]
                            ]
                        ],
                        "name": "batch_normalization_10"
                    },
                    {
                        "class_name": "Activation",
"config": {
"activation": "relu",
                            "name": "leaky_re_lu_10",
                            "trainable": true
                        },
                        "inbound_nodes": [
                            [
                                [
                                    "batch_normalization_10",
                                    0,
                                    0,
                                    {}
                                ]
                            ]
                        ],
                        "name": "leaky_re_lu_10"
                    },
                    {
                        "class_name": "Conv2D",
                        "config": {
                            "activation": "linear",
                            "activity_regularizer": null,
                            "bias_constraint": null,
                            "bias_initializer": {
                                "class_name": "Zeros",
                                "config": {}
                            },
                            "bias_regularizer": null,
                            "data_format": "channels_last",
                            "dilation_rate": [
                                1,
                                1
                            ],
                            "filters": 512,
                            "kernel_constraint": null,
                            "kernel_initializer": {
                                "class_name": "VarianceScaling",
                                "config": {
                                    "distribution": "uniform",
                                    "mode": "fan_avg",
                                    "scale": 1.0,
                                    "seed": null
                                }
                            },
                            "kernel_regularizer": {
                                "class_name": "L1L2",
                                "config": {
                                    "l1": 0.0,
                                    "l2": 0.0005000000237487257
                                }
                            },
                            "kernel_size": [
                                3,
                                3
                            ],
                            "name": "conv2d_11",
                            "padding": "same",
                            "strides": [
                                1,
                                1
                            ],
                            "trainable": true,
                            "use_bias": false
                        },
                        "inbound_nodes": [
                            [
                                [
                                    "leaky_re_lu_10",
                                    0,
                                    0,
                                    {}
                                ]
                            ]
                        ],
                        "name": "conv2d_11"
                    },
                    {
                        "class_name": "BatchNormalization",
                        "config": {
                            "axis": -1,
                            "beta_constraint": null,
                            "beta_initializer": {
                                "class_name": "Zeros",
                                "config": {}
                            },
                            "beta_regularizer": null,
                            "center": true,
                            "epsilon": 0.001,
                            "gamma_constraint": null,
                            "gamma_initializer": {
                                "class_name": "Ones",
                                "config": {}
                            },
                            "gamma_regularizer": null,
                            "momentum": 0.99,
                            "moving_mean_initializer": {
                                "class_name": "Zeros",
                                "config": {}
                            },
                            "moving_variance_initializer": {
                                "class_name": "Ones",
                                "config": {}
                            },
                            "name": "batch_normalization_11",
                            "scale": true,
                            "trainable": true
                        },
                        "inbound_nodes": [
                            [
                                [
                                    "conv2d_11",
                                    0,
                                    0,
                                    {}
                                ]
                            ]
                        ],
                        "name": "batch_normalization_11"
                    },
                    {
                        "class_name": "Activation",
"config": {
"activation": "relu",
                            "name": "leaky_re_lu_11",
                            "trainable": true
                        },
                        "inbound_nodes": [
                            [
                                [
                                    "batch_normalization_11",
                                    0,
                                    0,
                                    {}
                                ]
                            ]
                        ],
                        "name": "leaky_re_lu_11"
                    },
                    {
                        "class_name": "Conv2D",
                        "config": {
                            "activation": "linear",
                            "activity_regularizer": null,
                            "bias_constraint": null,
                            "bias_initializer": {
                                "class_name": "Zeros",
                                "config": {}
                            },
                            "bias_regularizer": null,
                            "data_format": "channels_last",
                            "dilation_rate": [
                                1,
                                1
                            ],
                            "filters": 256,
                            "kernel_constraint": null,
                            "kernel_initializer": {
                                "class_name": "VarianceScaling",
                                "config": {
                                    "distribution": "uniform",
                                    "mode": "fan_avg",
                                    "scale": 1.0,
                                    "seed": null
                                }
                            },
                            "kernel_regularizer": {
                                "class_name": "L1L2",
                                "config": {
                                    "l1": 0.0,
                                    "l2": 0.0005000000237487257
                                }
                            },
                            "kernel_size": [
                                1,
                                1
                            ],
                            "name": "conv2d_12",
                            "padding": "same",
                            "strides": [
                                1,
                                1
                            ],
                            "trainable": true,
                            "use_bias": false
                        },
                        "inbound_nodes": [
                            [
                                [
                                    "leaky_re_lu_11",
                                    0,
                                    0,
                                    {}
                                ]
                            ]
                        ],
                        "name": "conv2d_12"
                    },
                    {
                        "class_name": "BatchNormalization",
                        "config": {
                            "axis": -1,
                            "beta_constraint": null,
                            "beta_initializer": {
                                "class_name": "Zeros",
                                "config": {}
                            },
                            "beta_regularizer": null,
                            "center": true,
                            "epsilon": 0.001,
                            "gamma_constraint": null,
                            "gamma_initializer": {
                                "class_name": "Ones",
                                "config": {}
                            },
                            "gamma_regularizer": null,
                            "momentum": 0.99,
                            "moving_mean_initializer": {
                                "class_name": "Zeros",
                                "config": {}
                            },
                            "moving_variance_initializer": {
                                "class_name": "Ones",
                                "config": {}
                            },
                            "name": "batch_normalization_12",
                            "scale": true,
                            "trainable": true
                        },
                        "inbound_nodes": [
                            [
                                [
                                    "conv2d_12",
                                    0,
                                    0,
                                    {}
                                ]
                            ]
                        ],
                        "name": "batch_normalization_12"
                    },
                    {
                        "class_name": "Activation",
"config": {
"activation": "relu",
                            "name": "leaky_re_lu_12",
                            "trainable": true
                        },
                        "inbound_nodes": [
                            [
                                [
                                    "batch_normalization_12",
                                    0,
                                    0,
                                    {}
                                ]
                            ]
                        ],
                        "name": "leaky_re_lu_12"
                    },
                    {
                        "class_name": "Conv2D",
                        "config": {
                            "activation": "linear",
                            "activity_regularizer": null,
                            "bias_constraint": null,
                            "bias_initializer": {
                                "class_name": "Zeros",
                                "config": {}
                            },
                            "bias_regularizer": null,
                            "data_format": "channels_last",
                            "dilation_rate": [
                                1,
                                1
                            ],
                            "filters": 512,
                            "kernel_constraint": null,
                            "kernel_initializer": {
                                "class_name": "VarianceScaling",
                                "config": {
                                    "distribution": "uniform",
                                    "mode": "fan_avg",
                                    "scale": 1.0,
                                    "seed": null
                                }
                            },
                            "kernel_regularizer": {
                                "class_name": "L1L2",
                                "config": {
                                    "l1": 0.0,
                                    "l2": 0.0005000000237487257
                                }
                            },
                            "kernel_size": [
                                3,
                                3
                            ],
                            "name": "conv2d_13",
                            "padding": "same",
                            "strides": [
                                1,
                                1
                            ],
                            "trainable": true,
                            "use_bias": false
                        },
                        "inbound_nodes": [
                            [
                                [
                                    "leaky_re_lu_12",
                                    0,
                                    0,
                                    {}
                                ]
                            ]
                        ],
                        "name": "conv2d_13"
                    },
                    {
                        "class_name": "BatchNormalization",
                        "config": {
                            "axis": -1,
                            "beta_constraint": null,
                            "beta_initializer": {
                                "class_name": "Zeros",
                                "config": {}
                            },
                            "beta_regularizer": null,
                            "center": true,
                            "epsilon": 0.001,
                            "gamma_constraint": null,
                            "gamma_initializer": {
                                "class_name": "Ones",
                                "config": {}
                            },
                            "gamma_regularizer": null,
                            "momentum": 0.99,
                            "moving_mean_initializer": {
                                "class_name": "Zeros",
                                "config": {}
                            },
                            "moving_variance_initializer": {
                                "class_name": "Ones",
                                "config": {}
                            },
                            "name": "batch_normalization_13",
                            "scale": true,
                            "trainable": true
                        },
                        "inbound_nodes": [
                            [
                                [
                                    "conv2d_13",
                                    0,
                                    0,
                                    {}
                                ]
                            ]
                        ],
                        "name": "batch_normalization_13"
                    },
                    {
                        "class_name": "Activation",
"config": {
"activation": "relu",
                            "name": "leaky_re_lu_13",
                            "trainable": true
                        },
                        "inbound_nodes": [
                            [
                                [
                                    "batch_normalization_13",
                                    0,
                                    0,
                                    {}
                                ]
                            ]
                        ],
                        "name": "leaky_re_lu_13"
                    },
                    {
                        "class_name": "MaxPooling2D",
                        "config": {
                            "data_format": "channels_last",
                            "name": "max_pooling2d_5",
                            "padding": "same",
                            "pool_size": [
                                2,
                                2
                            ],
                            "strides": [
                                2,
                                2
                            ],
                            "trainable": true
                        },
                        "inbound_nodes": [
                            [
                                [
                                    "leaky_re_lu_13",
                                    0,
                                    0,
                                    {}
                                ]
                            ]
                        ],
                        "name": "max_pooling2d_5"
                    },
                    {
                        "class_name": "Conv2D",
                        "config": {
                            "activation": "linear",
                            "activity_regularizer": null,
                            "bias_constraint": null,
                            "bias_initializer": {
                                "class_name": "Zeros",
                                "config": {}
                            },
                            "bias_regularizer": null,
                            "data_format": "channels_last",
                            "dilation_rate": [
                                1,
                                1
                            ],
                            "filters": 1024,
                            "kernel_constraint": null,
                            "kernel_initializer": {
                                "class_name": "VarianceScaling",
                                "config": {
                                    "distribution": "uniform",
                                    "mode": "fan_avg",
                                    "scale": 1.0,
                                    "seed": null
                                }
                            },
                            "kernel_regularizer": {
                                "class_name": "L1L2",
                                "config": {
                                    "l1": 0.0,
                                    "l2": 0.0005000000237487257
                                }
                            },
                            "kernel_size": [
                                3,
                                3
                            ],
                            "name": "conv2d_14",
                            "padding": "same",
                            "strides": [
                                1,
                                1
                            ],
                            "trainable": true,
                            "use_bias": false
                        },
                        "inbound_nodes": [
                            [
                                [
                                    "max_pooling2d_5",
                                    0,
                                    0,
                                    {}
                                ]
                            ]
                        ],
                        "name": "conv2d_14"
                    },
                    {
                        "class_name": "BatchNormalization",
                        "config": {
                            "axis": -1,
                            "beta_constraint": null,
                            "beta_initializer": {
                                "class_name": "Zeros",
                                "config": {}
                            },
                            "beta_regularizer": null,
                            "center": true,
                            "epsilon": 0.001,
                            "gamma_constraint": null,
                            "gamma_initializer": {
                                "class_name": "Ones",
                                "config": {}
                            },
                            "gamma_regularizer": null,
                            "momentum": 0.99,
                            "moving_mean_initializer": {
                                "class_name": "Zeros",
                                "config": {}
                            },
                            "moving_variance_initializer": {
                                "class_name": "Ones",
                                "config": {}
                            },
                            "name": "batch_normalization_14",
                            "scale": true,
                            "trainable": true
                        },
                        "inbound_nodes": [
                            [
                                [
                                    "conv2d_14",
                                    0,
                                    0,
                                    {}
                                ]
                            ]
                        ],
                        "name": "batch_normalization_14"
                    },
                    {
                        "class_name": "Activation",
"config": {
"activation": "relu",
                            "name": "leaky_re_lu_14",
                            "trainable": true
                        },
                        "inbound_nodes": [
                            [
                                [
                                    "batch_normalization_14",
                                    0,
                                    0,
                                    {}
                                ]
                            ]
                        ],
                        "name": "leaky_re_lu_14"
                    },
                    {
                        "class_name": "Conv2D",
                        "config": {
                            "activation": "linear",
                            "activity_regularizer": null,
                            "bias_constraint": null,
                            "bias_initializer": {
                                "class_name": "Zeros",
                                "config": {}
                            },
                            "bias_regularizer": null,
                            "data_format": "channels_last",
                            "dilation_rate": [
                                1,
                                1
                            ],
                            "filters": 512,
                            "kernel_constraint": null,
                            "kernel_initializer": {
                                "class_name": "VarianceScaling",
                                "config": {
                                    "distribution": "uniform",
                                    "mode": "fan_avg",
                                    "scale": 1.0,
                                    "seed": null
                                }
                            },
                            "kernel_regularizer": {
                                "class_name": "L1L2",
                                "config": {
                                    "l1": 0.0,
                                    "l2": 0.0005000000237487257
                                }
                            },
                            "kernel_size": [
                                1,
                                1
                            ],
                            "name": "conv2d_15",
                            "padding": "same",
                            "strides": [
                                1,
                                1
                            ],
                            "trainable": true,
                            "use_bias": false
                        },
                        "inbound_nodes": [
                            [
                                [
                                    "leaky_re_lu_14",
                                    0,
                                    0,
                                    {}
                                ]
                            ]
                        ],
                        "name": "conv2d_15"
                    },
                    {
                        "class_name": "BatchNormalization",
                        "config": {
                            "axis": -1,
                            "beta_constraint": null,
                            "beta_initializer": {
                                "class_name": "Zeros",
                                "config": {}
                            },
                            "beta_regularizer": null,
                            "center": true,
                            "epsilon": 0.001,
                            "gamma_constraint": null,
                            "gamma_initializer": {
                                "class_name": "Ones",
                                "config": {}
                            },
                            "gamma_regularizer": null,
                            "momentum": 0.99,
                            "moving_mean_initializer": {
                                "class_name": "Zeros",
                                "config": {}
                            },
                            "moving_variance_initializer": {
                                "class_name": "Ones",
                                "config": {}
                            },
                            "name": "batch_normalization_15",
                            "scale": true,
                            "trainable": true
                        },
                        "inbound_nodes": [
                            [
                                [
                                    "conv2d_15",
                                    0,
                                    0,
                                    {}
                                ]
                            ]
                        ],
                        "name": "batch_normalization_15"
                    },
                    {
                        "class_name": "Activation",
"config": {
"activation": "relu",
                            "name": "leaky_re_lu_15",
                            "trainable": true
                        },
                        "inbound_nodes": [
                            [
                                [
                                    "batch_normalization_15",
                                    0,
                                    0,
                                    {}
                                ]
                            ]
                        ],
                        "name": "leaky_re_lu_15"
                    },
                    {
                        "class_name": "Conv2D",
                        "config": {
                            "activation": "linear",
                            "activity_regularizer": null,
                            "bias_constraint": null,
                            "bias_initializer": {
                                "class_name": "Zeros",
                                "config": {}
                            },
                            "bias_regularizer": null,
                            "data_format": "channels_last",
                            "dilation_rate": [
                                1,
                                1
                            ],
                            "filters": 1024,
                            "kernel_constraint": null,
                            "kernel_initializer": {
                                "class_name": "VarianceScaling",
                                "config": {
                                    "distribution": "uniform",
                                    "mode": "fan_avg",
                                    "scale": 1.0,
                                    "seed": null
                                }
                            },
                            "kernel_regularizer": {
                                "class_name": "L1L2",
                                "config": {
                                    "l1": 0.0,
                                    "l2": 0.0005000000237487257
                                }
                            },
                            "kernel_size": [
                                3,
                                3
                            ],
                            "name": "conv2d_16",
                            "padding": "same",
                            "strides": [
                                1,
                                1
                            ],
                            "trainable": true,
                            "use_bias": false
                        },
                        "inbound_nodes": [
                            [
                                [
                                    "leaky_re_lu_15",
                                    0,
                                    0,
                                    {}
                                ]
                            ]
                        ],
                        "name": "conv2d_16"
                    },
                    {
                        "class_name": "BatchNormalization",
                        "config": {
                            "axis": -1,
                            "beta_constraint": null,
                            "beta_initializer": {
                                "class_name": "Zeros",
                                "config": {}
                            },
                            "beta_regularizer": null,
                            "center": true,
                            "epsilon": 0.001,
                            "gamma_constraint": null,
                            "gamma_initializer": {
                                "class_name": "Ones",
                                "config": {}
                            },
                            "gamma_regularizer": null,
                            "momentum": 0.99,
                            "moving_mean_initializer": {
                                "class_name": "Zeros",
                                "config": {}
                            },
                            "moving_variance_initializer": {
                                "class_name": "Ones",
                                "config": {}
                            },
                            "name": "batch_normalization_16",
                            "scale": true,
                            "trainable": true
                        },
                        "inbound_nodes": [
                            [
                                [
                                    "conv2d_16",
                                    0,
                                    0,
                                    {}
                                ]
                            ]
                        ],
                        "name": "batch_normalization_16"
                    },
                    {
                        "class_name": "Activation",
"config": {
"activation": "relu",
                            "name": "leaky_re_lu_16",
                            "trainable": true
                        },
                        "inbound_nodes": [
                            [
                                [
                                    "batch_normalization_16",
                                    0,
                                    0,
                                    {}
                                ]
                            ]
                        ],
                        "name": "leaky_re_lu_16"
                    },
                    {
                        "class_name": "Conv2D",
                        "config": {
                            "activation": "linear",
                            "activity_regularizer": null,
                            "bias_constraint": null,
                            "bias_initializer": {
                                "class_name": "Zeros",
                                "config": {}
                            },
                            "bias_regularizer": null,
                            "data_format": "channels_last",
                            "dilation_rate": [
                                1,
                                1
                            ],
                            "filters": 512,
                            "kernel_constraint": null,
                            "kernel_initializer": {
                                "class_name": "VarianceScaling",
                                "config": {
                                    "distribution": "uniform",
                                    "mode": "fan_avg",
                                    "scale": 1.0,
                                    "seed": null
                                }
                            },
                            "kernel_regularizer": {
                                "class_name": "L1L2",
                                "config": {
                                    "l1": 0.0,
                                    "l2": 0.0005000000237487257
                                }
                            },
                            "kernel_size": [
                                1,
                                1
                            ],
                            "name": "conv2d_17",
                            "padding": "same",
                            "strides": [
                                1,
                                1
                            ],
                            "trainable": true,
                            "use_bias": false
                        },
                        "inbound_nodes": [
                            [
                                [
                                    "leaky_re_lu_16",
                                    0,
                                    0,
                                    {}
                                ]
                            ]
                        ],
                        "name": "conv2d_17"
                    },
                    {
                        "class_name": "BatchNormalization",
                        "config": {
                            "axis": -1,
                            "beta_constraint": null,
                            "beta_initializer": {
                                "class_name": "Zeros",
                                "config": {}
                            },
                            "beta_regularizer": null,
                            "center": true,
                            "epsilon": 0.001,
                            "gamma_constraint": null,
                            "gamma_initializer": {
                                "class_name": "Ones",
                                "config": {}
                            },
                            "gamma_regularizer": null,
                            "momentum": 0.99,
                            "moving_mean_initializer": {
                                "class_name": "Zeros",
                                "config": {}
                            },
                            "moving_variance_initializer": {
                                "class_name": "Ones",
                                "config": {}
                            },
                            "name": "batch_normalization_17",
                            "scale": true,
                            "trainable": true
                        },
                        "inbound_nodes": [
                            [
                                [
                                    "conv2d_17",
                                    0,
                                    0,
                                    {}
                                ]
                            ]
                        ],
                        "name": "batch_normalization_17"
                    },
                    {
                        "class_name": "Activation",
"config": {
"activation": "relu",
                            "name": "leaky_re_lu_17",
                            "trainable": true
                        },
                        "inbound_nodes": [
                            [
                                [
                                    "batch_normalization_17",
                                    0,
                                    0,
                                    {}
                                ]
                            ]
                        ],
                        "name": "leaky_re_lu_17"
                    },
                    {
                        "class_name": "Conv2D",
                        "config": {
                            "activation": "linear",
                            "activity_regularizer": null,
                            "bias_constraint": null,
                            "bias_initializer": {
                                "class_name": "Zeros",
                                "config": {}
                            },
                            "bias_regularizer": null,
                            "data_format": "channels_last",
                            "dilation_rate": [
                                1,
                                1
                            ],
                            "filters": 1024,
                            "kernel_constraint": null,
                            "kernel_initializer": {
                                "class_name": "VarianceScaling",
                                "config": {
                                    "distribution": "uniform",
                                    "mode": "fan_avg",
                                    "scale": 1.0,
                                    "seed": null
                                }
                            },
                            "kernel_regularizer": {
                                "class_name": "L1L2",
                                "config": {
                                    "l1": 0.0,
                                    "l2": 0.0005000000237487257
                                }
                            },
                            "kernel_size": [
                                3,
                                3
                            ],
                            "name": "conv2d_18",
                            "padding": "same",
                            "strides": [
                                1,
                                1
                            ],
                            "trainable": true,
                            "use_bias": false
                        },
                        "inbound_nodes": [
                            [
                                [
                                    "leaky_re_lu_17",
                                    0,
                                    0,
                                    {}
                                ]
                            ]
                        ],
                        "name": "conv2d_18"
                    },
                    {
                        "class_name": "BatchNormalization",
                        "config": {
                            "axis": -1,
                            "beta_constraint": null,
                            "beta_initializer": {
                                "class_name": "Zeros",
                                "config": {}
                            },
                            "beta_regularizer": null,
                            "center": true,
                            "epsilon": 0.001,
                            "gamma_constraint": null,
                            "gamma_initializer": {
                                "class_name": "Ones",
                                "config": {}
                            },
                            "gamma_regularizer": null,
                            "momentum": 0.99,
                            "moving_mean_initializer": {
                                "class_name": "Zeros",
                                "config": {}
                            },
                            "moving_variance_initializer": {
                                "class_name": "Ones",
                                "config": {}
                            },
                            "name": "batch_normalization_18",
                            "scale": true,
                            "trainable": true
                        },
                        "inbound_nodes": [
                            [
                                [
                                    "conv2d_18",
                                    0,
                                    0,
                                    {}
                                ]
                            ]
                        ],
                        "name": "batch_normalization_18"
                    },
                    {
                        "class_name": "Activation",
"config": {
"activation": "relu",
                            "name": "leaky_re_lu_18",
                            "trainable": true
                        },
                        "inbound_nodes": [
                            [
                                [
                                    "batch_normalization_18",
                                    0,
                                    0,
                                    {}
                                ]
                            ]
                        ],
                        "name": "leaky_re_lu_18"
                    },
                    {
                        "class_name": "Conv2D",
                        "config": {
                            "activation": "linear",
                            "activity_regularizer": null,
                            "bias_constraint": null,
                            "bias_initializer": {
                                "class_name": "Zeros",
                                "config": {}
                            },
                            "bias_regularizer": null,
                            "data_format": "channels_last",
                            "dilation_rate": [
                                1,
                                1
                            ],
                            "filters": 1024,
                            "kernel_constraint": null,
                            "kernel_initializer": {
                                "class_name": "VarianceScaling",
                                "config": {
                                    "distribution": "uniform",
                                    "mode": "fan_avg",
                                    "scale": 1.0,
                                    "seed": null
                                }
                            },
                            "kernel_regularizer": {
                                "class_name": "L1L2",
                                "config": {
                                    "l1": 0.0,
                                    "l2": 0.0005000000237487257
                                }
                            },
                            "kernel_size": [
                                3,
                                3
                            ],
                            "name": "conv2d_19",
                            "padding": "same",
                            "strides": [
                                1,
                                1
                            ],
                            "trainable": true,
                            "use_bias": false
                        },
                        "inbound_nodes": [
                            [
                                [
                                    "leaky_re_lu_18",
                                    0,
                                    0,
                                    {}
                                ]
                            ]
                        ],
                        "name": "conv2d_19"
                    },
                    {
                        "class_name": "BatchNormalization",
                        "config": {
                            "axis": -1,
                            "beta_constraint": null,
                            "beta_initializer": {
                                "class_name": "Zeros",
                                "config": {}
                            },
                            "beta_regularizer": null,
                            "center": true,
                            "epsilon": 0.001,
                            "gamma_constraint": null,
                            "gamma_initializer": {
                                "class_name": "Ones",
                                "config": {}
                            },
                            "gamma_regularizer": null,
                            "momentum": 0.99,
                            "moving_mean_initializer": {
                                "class_name": "Zeros",
                                "config": {}
                            },
                            "moving_variance_initializer": {
                                "class_name": "Ones",
                                "config": {}
                            },
                            "name": "batch_normalization_19",
                            "scale": true,
                            "trainable": true
                        },
                        "inbound_nodes": [
                            [
                                [
                                    "conv2d_19",
                                    0,
                                    0,
                                    {}
                                ]
                            ]
                        ],
                        "name": "batch_normalization_19"
                    },
                    {
                        "class_name": "Conv2D",
                        "config": {
                            "activation": "linear",
                            "activity_regularizer": null,
                            "bias_constraint": null,
                            "bias_initializer": {
                                "class_name": "Zeros",
                                "config": {}
                            },
                            "bias_regularizer": null,
                            "data_format": "channels_last",
                            "dilation_rate": [
                                1,
                                1
                            ],
                            "filters": 64,
                            "kernel_constraint": null,
                            "kernel_initializer": {
                                "class_name": "VarianceScaling",
                                "config": {
                                    "distribution": "uniform",
                                    "mode": "fan_avg",
                                    "scale": 1.0,
                                    "seed": null
                                }
                            },
                            "kernel_regularizer": {
                                "class_name": "L1L2",
                                "config": {
                                    "l1": 0.0,
                                    "l2": 0.0005000000237487257
                                }
                            },
                            "kernel_size": [
                                1,
                                1
                            ],
                            "name": "conv2d_21",
                            "padding": "same",
                            "strides": [
                                1,
                                1
                            ],
                            "trainable": true,
                            "use_bias": false
                        },
                        "inbound_nodes": [
                            [
                                [
                                    "leaky_re_lu_13",
                                    0,
                                    0,
                                    {}
                                ]
                            ]
                        ],
                        "name": "conv2d_21"
                    },
                    {
                        "class_name": "Activation",
"config": {
"activation": "relu",
                            "name": "leaky_re_lu_19",
                            "trainable": true
                        },
                        "inbound_nodes": [
                            [
                                [
                                    "batch_normalization_19",
                                    0,
                                    0,
                                    {}
                                ]
                            ]
                        ],
                        "name": "leaky_re_lu_19"
                    },
                    {
                        "class_name": "BatchNormalization",
                        "config": {
                            "axis": -1,
                            "beta_constraint": null,
                            "beta_initializer": {
                                "class_name": "Zeros",
                                "config": {}
                            },
                            "beta_regularizer": null,
                            "center": true,
                            "epsilon": 0.001,
                            "gamma_constraint": null,
                            "gamma_initializer": {
                                "class_name": "Ones",
                                "config": {}
                            },
                            "gamma_regularizer": null,
                            "momentum": 0.99,
                            "moving_mean_initializer": {
                                "class_name": "Zeros",
                                "config": {}
                            },
                            "moving_variance_initializer": {
                                "class_name": "Ones",
                                "config": {}
                            },
                            "name": "batch_normalization_21",
                            "scale": true,
                            "trainable": true
                        },
                        "inbound_nodes": [
                            [
                                [
                                    "conv2d_21",
                                    0,
                                    0,
                                    {}
                                ]
                            ]
                        ],
                        "name": "batch_normalization_21"
                    },
                    {
                        "class_name": "Conv2D",
                        "config": {
                            "activation": "linear",
                            "activity_regularizer": null,
                            "bias_constraint": null,
                            "bias_initializer": {
                                "class_name": "Zeros",
                                "config": {}
                            },
                            "bias_regularizer": null,
                            "data_format": "channels_last",
                            "dilation_rate": [
                                1,
                                1
                            ],
                            "filters": 1024,
                            "kernel_constraint": null,
                            "kernel_initializer": {
                                "class_name": "VarianceScaling",
                                "config": {
                                    "distribution": "uniform",
                                    "mode": "fan_avg",
                                    "scale": 1.0,
                                    "seed": null
                                }
                            },
                            "kernel_regularizer": {
                                "class_name": "L1L2",
                                "config": {
                                    "l1": 0.0,
                                    "l2": 0.0005000000237487257
                                }
                            },
                            "kernel_size": [
                                3,
                                3
                            ],
                            "name": "conv2d_20",
                            "padding": "same",
                            "strides": [
                                1,
                                1
                            ],
                            "trainable": true,
                            "use_bias": false
                        },
                        "inbound_nodes": [
                            [
                                [
                                    "leaky_re_lu_19",
                                    0,
                                    0,
                                    {}
                                ]
                            ]
                        ],
                        "name": "conv2d_20"
                    },
                    {
                        "class_name": "Activation",
"config": {
"activation": "relu",
                            "name": "leaky_re_lu_21",
                            "trainable": true
                        },
                        "inbound_nodes": [
                            [
                                [
                                    "batch_normalization_21",
                                    0,
                                    0,
                                    {}
                                ]
                            ]
                        ],
                        "name": "leaky_re_lu_21"
                    },
                    {
                        "class_name": "BatchNormalization",
                        "config": {
                            "axis": -1,
                            "beta_constraint": null,
                            "beta_initializer": {
                                "class_name": "Zeros",
                                "config": {}
                            },
                            "beta_regularizer": null,
                            "center": true,
                            "epsilon": 0.001,
                            "gamma_constraint": null,
                            "gamma_initializer": {
                                "class_name": "Ones",
                                "config": {}
                            },
                            "gamma_regularizer": null,
                            "momentum": 0.99,
                            "moving_mean_initializer": {
                                "class_name": "Zeros",
                                "config": {}
                            },
                            "moving_variance_initializer": {
                                "class_name": "Ones",
                                "config": {}
                            },
                            "name": "batch_normalization_20",
                            "scale": true,
                            "trainable": true
                        },
                        "inbound_nodes": [
                            [
                                [
                                    "conv2d_20",
                                    0,
                                    0,
                                    {}
                                ]
                            ]
                        ],
                        "name": "batch_normalization_20"
                    },
                    {
                        "class_name": "Lambda",
                        "config": {
                            "arguments": {},
                            "function": [
                                "4wEAAAAAAAAAAgAAAAQAAABDAAAAcxYAAABkAWQCbAB9AXwBagF8AGQDZASNAlMAKQX6PVRoaW4g\nd3JhcHBlciBmb3IgVGVuc29yZmxvdyBzcGFjZV90b19kZXB0aCB3aXRoIGJsb2NrX3NpemU9Mi7p\nAAAAAE7pAgAAACkB2gpibG9ja19zaXplKQLaCnRlbnNvcmZsb3faDnNwYWNlX3RvX2RlcHRoKQLa\nAXjaAnRmqQByCQAAAPopL2NvbnRlbnQveWFkMmsveWFkMmsvbW9kZWxzL2tlcmFzX3lvbG8ucHna\nEXNwYWNlX3RvX2RlcHRoX3gyGwAAAHMEAAAAAAQIAQ==\n",
                                null,
                                null
                            ],
                            "function_type": "lambda",
                            "name": "space_to_depth_x2",
                            "output_shape": [
                                "4wEAAAAAAAAAAQAAAAYAAABDAAAAc0gAAAB8AGQBGQByMHwAZAIZAHwAZAEZAGQDGgB8AGQDGQBk\nAxoAZAR8AGQFGQAUAGYEUwB8AGQCGQBkBmQGZAR8AGQFGQAUAGYEUwApB/qLRGV0ZXJtaW5lIHNw\nYWNlX3RvX2RlcHRoIG91dHB1dCBzaGFwZSBmb3IgYmxvY2tfc2l6ZT0yLgoKICAgIE5vdGU6IEZv\nciBMYW1iZGEgd2l0aCBUZW5zb3JGbG93IGJhY2tlbmQsIG91dHB1dCBzaGFwZSBtYXkgbm90IGJl\nIG5lZWRlZC4KICAgIOkBAAAA6QAAAADpAgAAAOkEAAAA6QMAAABOqQApAdoLaW5wdXRfc2hhcGVy\nBwAAAHIHAAAA+ikvY29udGVudC95YWQyay95YWQyay9tb2RlbHMva2VyYXNfeW9sby5wedoec3Bh\nY2VfdG9fZGVwdGhfeDJfb3V0cHV0X3NoYXBlIwAAAHMEAAAAAAY6AQ==\n",
                                null,
                                null
                            ],
                            "output_shape_type": "lambda",
                            "trainable": true
                        },
                        "inbound_nodes": [
                            [
                                [
                                    "leaky_re_lu_21",
                                    0,
                                    0,
                                    {}
                                ]
                            ]
                        ],
                        "name": "space_to_depth_x2"
                    },
                    {
                        "class_name": "Activation",
"config": {
"activation": "relu",
                            "name": "leaky_re_lu_20",
                            "trainable": true
                        },
                        "inbound_nodes": [
                            [
                                [
                                    "batch_normalization_20",
                                    0,
                                    0,
                                    {}
                                ]
                            ]
                        ],
                        "name": "leaky_re_lu_20"
                    },
                    {
                        "class_name": "Concatenate",
                        "config": {
                            "axis": -1,
                            "name": "concatenate_1",
                            "trainable": true
                        },
                        "inbound_nodes": [
                            [
                                [
                                    "space_to_depth_x2",
                                    0,
                                    0,
                                    {}
                                ],
                                [
                                    "leaky_re_lu_20",
                                    0,
                                    0,
                                    {}
                                ]
                            ]
                        ],
                        "name": "concatenate_1"
                    },
                    {
                        "class_name": "Conv2D",
                        "config": {
                            "activation": "linear",
                            "activity_regularizer": null,
                            "bias_constraint": null,
                            "bias_initializer": {
                                "class_name": "Zeros",
                                "config": {}
                            },
                            "bias_regularizer": null,
                            "data_format": "channels_last",
                            "dilation_rate": [
                                1,
                                1
                            ],
                            "filters": 1024,
                            "kernel_constraint": null,
                            "kernel_initializer": {
                                "class_name": "VarianceScaling",
                                "config": {
                                    "distribution": "uniform",
                                    "mode": "fan_avg",
                                    "scale": 1.0,
                                    "seed": null
                                }
                            },
                            "kernel_regularizer": {
                                "class_name": "L1L2",
                                "config": {
                                    "l1": 0.0,
                                    "l2": 0.0005000000237487257
                                }
                            },
                            "kernel_size": [
                                3,
                                3
                            ],
                            "name": "conv2d_22",
                            "padding": "same",
                            "strides": [
                                1,
                                1
                            ],
                            "trainable": true,
                            "use_bias": false
                        },
                        "inbound_nodes": [
                            [
                                [
                                    "concatenate_1",
                                    0,
                                    0,
                                    {}
                                ]
                            ]
                        ],
                        "name": "conv2d_22"
                    },
                    {
                        "class_name": "BatchNormalization",
                        "config": {
                            "axis": -1,
                            "beta_constraint": null,
                            "beta_initializer": {
                                "class_name": "Zeros",
                                "config": {}
                            },
                            "beta_regularizer": null,
                            "center": true,
                            "epsilon": 0.001,
                            "gamma_constraint": null,
                            "gamma_initializer": {
                                "class_name": "Ones",
                                "config": {}
                            },
                            "gamma_regularizer": null,
                            "momentum": 0.99,
                            "moving_mean_initializer": {
                                "class_name": "Zeros",
                                "config": {}
                            },
                            "moving_variance_initializer": {
                                "class_name": "Ones",
                                "config": {}
                            },
                            "name": "batch_normalization_22",
                            "scale": true,
                            "trainable": true
                        },
                        "inbound_nodes": [
                            [
                                [
                                    "conv2d_22",
                                    0,
                                    0,
                                    {}
                                ]
                            ]
                        ],
                        "name": "batch_normalization_22"
                    },
                    {
                        "class_name": "Activation",
"config": {
"activation": "relu",
                            "name": "leaky_re_lu_22",
                            "trainable": true
                        },
                        "inbound_nodes": [
                            [
                                [
                                    "batch_normalization_22",
                                    0,
                                    0,
                                    {}
                                ]
                            ]
                        ],
                        "name": "leaky_re_lu_22"
                    },
                    {
                        "class_name": "Conv2D",
                        "config": {
                            "activation": "linear",
                            "activity_regularizer": null,
                            "bias_constraint": null,
                            "bias_initializer": {
                                "class_name": "Zeros",
                                "config": {}
                            },
                            "bias_regularizer": null,
                            "data_format": "channels_last",
                            "dilation_rate": [
                                1,
                                1
                            ],
                            "filters": 425,
                            "kernel_constraint": null,
                            "kernel_initializer": {
                                "class_name": "VarianceScaling",
                                "config": {
                                    "distribution": "uniform",
                                    "mode": "fan_avg",
                                    "scale": 1.0,
                                    "seed": null
                                }
                            },
                            "kernel_regularizer": {
                                "class_name": "L1L2",
                                "config": {
                                    "l1": 0.0,
                                    "l2": 0.0005000000237487257
                                }
                            },
                            "kernel_size": [
                                1,
                                1
                            ],
                            "name": "conv2d_23",
                            "padding": "same",
                            "strides": [
                                1,
                                1
                            ],
                            "trainable": true,
                            "use_bias": true
                        },
                        "inbound_nodes": [
                            [
                                [
                                    "leaky_re_lu_22",
                                    0,
                                    0,
                                    {}
                                ]
                            ]
                        ],
                        "name": "conv2d_23"
                    }
                ],
                "name": "model_1",
                "output_layers": [
                    [
                        "conv2d_23",
                        0,
                        0
                    ]
                ]
            }
        }
    },
    "weightsManifest": [
        {
            "paths": [
                "group1-shard1of1"
            ],
            "weights": [
                {
                    "dtype": "float32",
                    "name": "batch_normalization_1/gamma",
                    "shape": [
                        32
                    ]
                },
                {
                    "dtype": "float32",
                    "name": "batch_normalization_1/beta",
                    "shape": [
                        32
                    ]
                },
                {
                    "dtype": "float32",
                    "name": "batch_normalization_1/moving_mean",
                    "shape": [
                        32
                    ]
                },
                {
                    "dtype": "float32",
                    "name": "batch_normalization_1/moving_variance",
                    "shape": [
                        32
                    ]
                }
            ]
        },
        {
            "paths": [
                "group2-shard1of1"
            ],
            "weights": [
                {
                    "dtype": "float32",
                    "name": "batch_normalization_10/gamma",
                    "shape": [
                        256
                    ]
                },
                {
                    "dtype": "float32",
                    "name": "batch_normalization_10/beta",
                    "shape": [
                        256
                    ]
                },
                {
                    "dtype": "float32",
                    "name": "batch_normalization_10/moving_mean",
                    "shape": [
                        256
                    ]
                },
                {
                    "dtype": "float32",
                    "name": "batch_normalization_10/moving_variance",
                    "shape": [
                        256
                    ]
                }
            ]
        },
        {
            "paths": [
                "group3-shard1of1"
            ],
            "weights": [
                {
                    "dtype": "float32",
                    "name": "batch_normalization_11/gamma",
                    "shape": [
                        512
                    ]
                },
                {
                    "dtype": "float32",
                    "name": "batch_normalization_11/beta",
                    "shape": [
                        512
                    ]
                },
                {
                    "dtype": "float32",
                    "name": "batch_normalization_11/moving_mean",
                    "shape": [
                        512
                    ]
                },
                {
                    "dtype": "float32",
                    "name": "batch_normalization_11/moving_variance",
                    "shape": [
                        512
                    ]
                }
            ]
        },
        {
            "paths": [
                "group4-shard1of1"
            ],
            "weights": [
                {
                    "dtype": "float32",
                    "name": "batch_normalization_12/gamma",
                    "shape": [
                        256
                    ]
                },
                {
                    "dtype": "float32",
                    "name": "batch_normalization_12/beta",
                    "shape": [
                        256
                    ]
                },
                {
                    "dtype": "float32",
                    "name": "batch_normalization_12/moving_mean",
                    "shape": [
                        256
                    ]
                },
                {
                    "dtype": "float32",
                    "name": "batch_normalization_12/moving_variance",
                    "shape": [
                        256
                    ]
                }
            ]
        },
        {
            "paths": [
                "group5-shard1of1"
            ],
            "weights": [
                {
                    "dtype": "float32",
                    "name": "batch_normalization_13/gamma",
                    "shape": [
                        512
                    ]
                },
                {
                    "dtype": "float32",
                    "name": "batch_normalization_13/beta",
                    "shape": [
                        512
                    ]
                },
                {
                    "dtype": "float32",
                    "name": "batch_normalization_13/moving_mean",
                    "shape": [
                        512
                    ]
                },
                {
                    "dtype": "float32",
                    "name": "batch_normalization_13/moving_variance",
                    "shape": [
                        512
                    ]
                }
            ]
        },
        {
            "paths": [
                "group6-shard1of1"
            ],
            "weights": [
                {
                    "dtype": "float32",
                    "name": "batch_normalization_14/gamma",
                    "shape": [
                        1024
                    ]
                },
                {
                    "dtype": "float32",
                    "name": "batch_normalization_14/beta",
                    "shape": [
                        1024
                    ]
                },
                {
                    "dtype": "float32",
                    "name": "batch_normalization_14/moving_mean",
                    "shape": [
                        1024
                    ]
                },
                {
                    "dtype": "float32",
                    "name": "batch_normalization_14/moving_variance",
                    "shape": [
                        1024
                    ]
                }
            ]
        },
        {
            "paths": [
                "group7-shard1of1"
            ],
            "weights": [
                {
                    "dtype": "float32",
                    "name": "batch_normalization_15/gamma",
                    "shape": [
                        512
                    ]
                },
                {
                    "dtype": "float32",
                    "name": "batch_normalization_15/beta",
                    "shape": [
                        512
                    ]
                },
                {
                    "dtype": "float32",
                    "name": "batch_normalization_15/moving_mean",
                    "shape": [
                        512
                    ]
                },
                {
                    "dtype": "float32",
                    "name": "batch_normalization_15/moving_variance",
                    "shape": [
                        512
                    ]
                }
            ]
        },
        {
            "paths": [
                "group8-shard1of1"
            ],
            "weights": [
                {
                    "dtype": "float32",
                    "name": "batch_normalization_16/gamma",
                    "shape": [
                        1024
                    ]
                },
                {
                    "dtype": "float32",
                    "name": "batch_normalization_16/beta",
                    "shape": [
                        1024
                    ]
                },
                {
                    "dtype": "float32",
                    "name": "batch_normalization_16/moving_mean",
                    "shape": [
                        1024
                    ]
                },
                {
                    "dtype": "float32",
                    "name": "batch_normalization_16/moving_variance",
                    "shape": [
                        1024
                    ]
                }
            ]
        },
        {
            "paths": [
                "group9-shard1of1"
            ],
            "weights": [
                {
                    "dtype": "float32",
                    "name": "batch_normalization_17/gamma",
                    "shape": [
                        512
                    ]
                },
                {
                    "dtype": "float32",
                    "name": "batch_normalization_17/beta",
                    "shape": [
                        512
                    ]
                },
                {
                    "dtype": "float32",
                    "name": "batch_normalization_17/moving_mean",
                    "shape": [
                        512
                    ]
                },
                {
                    "dtype": "float32",
                    "name": "batch_normalization_17/moving_variance",
                    "shape": [
                        512
                    ]
                }
            ]
        },
        {
            "paths": [
                "group10-shard1of1"
            ],
            "weights": [
                {
                    "dtype": "float32",
                    "name": "batch_normalization_18/gamma",
                    "shape": [
                        1024
                    ]
                },
                {
                    "dtype": "float32",
                    "name": "batch_normalization_18/beta",
                    "shape": [
                        1024
                    ]
                },
                {
                    "dtype": "float32",
                    "name": "batch_normalization_18/moving_mean",
                    "shape": [
                        1024
                    ]
                },
                {
                    "dtype": "float32",
                    "name": "batch_normalization_18/moving_variance",
                    "shape": [
                        1024
                    ]
                }
            ]
        },
        {
            "paths": [
                "group11-shard1of1"
            ],
            "weights": [
                {
                    "dtype": "float32",
                    "name": "batch_normalization_19/gamma",
                    "shape": [
                        1024
                    ]
                },
                {
                    "dtype": "float32",
                    "name": "batch_normalization_19/beta",
                    "shape": [
                        1024
                    ]
                },
                {
                    "dtype": "float32",
                    "name": "batch_normalization_19/moving_mean",
                    "shape": [
                        1024
                    ]
                },
                {
                    "dtype": "float32",
                    "name": "batch_normalization_19/moving_variance",
                    "shape": [
                        1024
                    ]
                }
            ]
        },
        {
            "paths": [
                "group12-shard1of1"
            ],
            "weights": [
                {
                    "dtype": "float32",
                    "name": "batch_normalization_2/gamma",
                    "shape": [
                        64
                    ]
                },
                {
                    "dtype": "float32",
                    "name": "batch_normalization_2/beta",
                    "shape": [
                        64
                    ]
                },
                {
                    "dtype": "float32",
                    "name": "batch_normalization_2/moving_mean",
                    "shape": [
                        64
                    ]
                },
                {
                    "dtype": "float32",
                    "name": "batch_normalization_2/moving_variance",
                    "shape": [
                        64
                    ]
                }
            ]
        },
        {
            "paths": [
                "group13-shard1of1"
            ],
            "weights": [
                {
                    "dtype": "float32",
                    "name": "batch_normalization_20/gamma",
                    "shape": [
                        1024
                    ]
                },
                {
                    "dtype": "float32",
                    "name": "batch_normalization_20/beta",
                    "shape": [
                        1024
                    ]
                },
                {
                    "dtype": "float32",
                    "name": "batch_normalization_20/moving_mean",
                    "shape": [
                        1024
                    ]
                },
                {
                    "dtype": "float32",
                    "name": "batch_normalization_20/moving_variance",
                    "shape": [
                        1024
                    ]
                }
            ]
        },
        {
            "paths": [
                "group14-shard1of1"
            ],
            "weights": [
                {
                    "dtype": "float32",
                    "name": "batch_normalization_21/gamma",
                    "shape": [
                        64
                    ]
                },
                {
                    "dtype": "float32",
                    "name": "batch_normalization_21/beta",
                    "shape": [
                        64
                    ]
                },
                {
                    "dtype": "float32",
                    "name": "batch_normalization_21/moving_mean",
                    "shape": [
                        64
                    ]
                },
                {
                    "dtype": "float32",
                    "name": "batch_normalization_21/moving_variance",
                    "shape": [
                        64
                    ]
                }
            ]
        },
        {
            "paths": [
                "group15-shard1of1"
            ],
            "weights": [
                {
                    "dtype": "float32",
                    "name": "batch_normalization_22/gamma",
                    "shape": [
                        1024
                    ]
                },
                {
                    "dtype": "float32",
                    "name": "batch_normalization_22/beta",
                    "shape": [
                        1024
                    ]
                },
                {
                    "dtype": "float32",
                    "name": "batch_normalization_22/moving_mean",
                    "shape": [
                        1024
                    ]
                },
                {
                    "dtype": "float32",
                    "name": "batch_normalization_22/moving_variance",
                    "shape": [
                        1024
                    ]
                }
            ]
        },
        {
            "paths": [
                "group16-shard1of1"
            ],
            "weights": [
                {
                    "dtype": "float32",
                    "name": "batch_normalization_3/gamma",
                    "shape": [
                        128
                    ]
                },
                {
                    "dtype": "float32",
                    "name": "batch_normalization_3/beta",
                    "shape": [
                        128
                    ]
                },
                {
                    "dtype": "float32",
                    "name": "batch_normalization_3/moving_mean",
                    "shape": [
                        128
                    ]
                },
                {
                    "dtype": "float32",
                    "name": "batch_normalization_3/moving_variance",
                    "shape": [
                        128
                    ]
                }
            ]
        },
        {
            "paths": [
                "group17-shard1of1"
            ],
            "weights": [
                {
                    "dtype": "float32",
                    "name": "batch_normalization_4/gamma",
                    "shape": [
                        64
                    ]
                },
                {
                    "dtype": "float32",
                    "name": "batch_normalization_4/beta",
                    "shape": [
                        64
                    ]
                },
                {
                    "dtype": "float32",
                    "name": "batch_normalization_4/moving_mean",
                    "shape": [
                        64
                    ]
                },
                {
                    "dtype": "float32",
                    "name": "batch_normalization_4/moving_variance",
                    "shape": [
                        64
                    ]
                }
            ]
        },
        {
            "paths": [
                "group18-shard1of1"
            ],
            "weights": [
                {
                    "dtype": "float32",
                    "name": "batch_normalization_5/gamma",
                    "shape": [
                        128
                    ]
                },
                {
                    "dtype": "float32",
                    "name": "batch_normalization_5/beta",
                    "shape": [
                        128
                    ]
                },
                {
                    "dtype": "float32",
                    "name": "batch_normalization_5/moving_mean",
                    "shape": [
                        128
                    ]
                },
                {
                    "dtype": "float32",
                    "name": "batch_normalization_5/moving_variance",
                    "shape": [
                        128
                    ]
                }
            ]
        },
        {
            "paths": [
                "group19-shard1of1"
            ],
            "weights": [
                {
                    "dtype": "float32",
                    "name": "batch_normalization_6/gamma",
                    "shape": [
                        256
                    ]
                },
                {
                    "dtype": "float32",
                    "name": "batch_normalization_6/beta",
                    "shape": [
                        256
                    ]
                },
                {
                    "dtype": "float32",
                    "name": "batch_normalization_6/moving_mean",
                    "shape": [
                        256
                    ]
                },
                {
                    "dtype": "float32",
                    "name": "batch_normalization_6/moving_variance",
                    "shape": [
                        256
                    ]
                }
            ]
        },
        {
            "paths": [
                "group20-shard1of1"
            ],
            "weights": [
                {
                    "dtype": "float32",
                    "name": "batch_normalization_7/gamma",
                    "shape": [
                        128
                    ]
                },
                {
                    "dtype": "float32",
                    "name": "batch_normalization_7/beta",
                    "shape": [
                        128
                    ]
                },
                {
                    "dtype": "float32",
                    "name": "batch_normalization_7/moving_mean",
                    "shape": [
                        128
                    ]
                },
                {
                    "dtype": "float32",
                    "name": "batch_normalization_7/moving_variance",
                    "shape": [
                        128
                    ]
                }
            ]
        },
        {
            "paths": [
                "group21-shard1of1"
            ],
            "weights": [
                {
                    "dtype": "float32",
                    "name": "batch_normalization_8/gamma",
                    "shape": [
                        256
                    ]
                },
                {
                    "dtype": "float32",
                    "name": "batch_normalization_8/beta",
                    "shape": [
                        256
                    ]
                },
                {
                    "dtype": "float32",
                    "name": "batch_normalization_8/moving_mean",
                    "shape": [
                        256
                    ]
                },
                {
                    "dtype": "float32",
                    "name": "batch_normalization_8/moving_variance",
                    "shape": [
                        256
                    ]
                }
            ]
        },
        {
            "paths": [
                "group22-shard1of1"
            ],
            "weights": [
                {
                    "dtype": "float32",
                    "name": "batch_normalization_9/gamma",
                    "shape": [
                        512
                    ]
                },
                {
                    "dtype": "float32",
                    "name": "batch_normalization_9/beta",
                    "shape": [
                        512
                    ]
                },
                {
                    "dtype": "float32",
                    "name": "batch_normalization_9/moving_mean",
                    "shape": [
                        512
                    ]
                },
                {
                    "dtype": "float32",
                    "name": "batch_normalization_9/moving_variance",
                    "shape": [
                        512
                    ]
                }
            ]
        },
        {
            "paths": [
                "group23-shard1of1"
            ],
            "weights": [
                {
                    "dtype": "float32",
                    "name": "conv2d_1/kernel",
                    "shape": [
                        3,
                        3,
                        3,
                        32
                    ]
                }
            ]
        },
        {
            "paths": [
                "group24-shard1of1"
            ],
            "weights": [
                {
                    "dtype": "float32",
                    "name": "conv2d_10/kernel",
                    "shape": [
                        1,
                        1,
                        512,
                        256
                    ]
                }
            ]
        },
        {
            "paths": [
                "group25-shard1of2",
                "group25-shard2of2"
            ],
            "weights": [
                {
                    "dtype": "float32",
                    "name": "conv2d_11/kernel",
                    "shape": [
                        3,
                        3,
                        256,
                        512
                    ]
                }
            ]
        },
        {
            "paths": [
                "group26-shard1of1"
            ],
            "weights": [
                {
                    "dtype": "float32",
                    "name": "conv2d_12/kernel",
                    "shape": [
                        1,
                        1,
                        512,
                        256
                    ]
                }
            ]
        },
        {
            "paths": [
                "group27-shard1of2",
                "group27-shard2of2"
            ],
            "weights": [
                {
                    "dtype": "float32",
                    "name": "conv2d_13/kernel",
                    "shape": [
                        3,
                        3,
                        256,
                        512
                    ]
                }
            ]
        },
        {
            "paths": [
                "group28-shard1of5",
                "group28-shard2of5",
                "group28-shard3of5",
                "group28-shard4of5",
                "group28-shard5of5"
            ],
            "weights": [
                {
                    "dtype": "float32",
                    "name": "conv2d_14/kernel",
                    "shape": [
                        3,
                        3,
                        512,
                        1024
                    ]
                }
            ]
        },
        {
            "paths": [
                "group29-shard1of1"
            ],
            "weights": [
                {
                    "dtype": "float32",
                    "name": "conv2d_15/kernel",
                    "shape": [
                        1,
                        1,
                        1024,
                        512
                    ]
                }
            ]
        },
        {
            "paths": [
                "group30-shard1of5",
                "group30-shard2of5",
                "group30-shard3of5",
                "group30-shard4of5",
                "group30-shard5of5"
            ],
            "weights": [
                {
                    "dtype": "float32",
                    "name": "conv2d_16/kernel",
                    "shape": [
                        3,
                        3,
                        512,
                        1024
                    ]
                }
            ]
        },
        {
            "paths": [
                "group31-shard1of1"
            ],
            "weights": [
                {
                    "dtype": "float32",
                    "name": "conv2d_17/kernel",
                    "shape": [
                        1,
                        1,
                        1024,
                        512
                    ]
                }
            ]
        },
        {
            "paths": [
                "group32-shard1of5",
                "group32-shard2of5",
                "group32-shard3of5",
                "group32-shard4of5",
                "group32-shard5of5"
            ],
            "weights": [
                {
                    "dtype": "float32",
                    "name": "conv2d_18/kernel",
                    "shape": [
                        3,
                        3,
                        512,
                        1024
                    ]
                }
            ]
        },
        {
            "paths": [
                "group33-shard1of9",
                "group33-shard2of9",
                "group33-shard3of9",
                "group33-shard4of9",
                "group33-shard5of9",
                "group33-shard6of9",
                "group33-shard7of9",
                "group33-shard8of9",
                "group33-shard9of9"
            ],
            "weights": [
                {
                    "dtype": "float32",
                    "name": "conv2d_19/kernel",
                    "shape": [
                        3,
                        3,
                        1024,
                        1024
                    ]
                }
            ]
        },
        {
            "paths": [
                "group34-shard1of1"
            ],
            "weights": [
                {
                    "dtype": "float32",
                    "name": "conv2d_2/kernel",
                    "shape": [
                        3,
                        3,
                        32,
                        64
                    ]
                }
            ]
        },
        {
            "paths": [
                "group35-shard1of9",
                "group35-shard2of9",
                "group35-shard3of9",
                "group35-shard4of9",
                "group35-shard5of9",
                "group35-shard6of9",
                "group35-shard7of9",
                "group35-shard8of9",
                "group35-shard9of9"
            ],
            "weights": [
                {
                    "dtype": "float32",
                    "name": "conv2d_20/kernel",
                    "shape": [
                        3,
                        3,
                        1024,
                        1024
                    ]
                }
            ]
        },
        {
            "paths": [
                "group36-shard1of1"
            ],
            "weights": [
                {
                    "dtype": "float32",
                    "name": "conv2d_21/kernel",
                    "shape": [
                        1,
                        1,
                        512,
                        64
                    ]
                }
            ]
        },
        {
            "paths": [
                "group37-shard1of12",
                "group37-shard2of12",
                "group37-shard3of12",
                "group37-shard4of12",
                "group37-shard5of12",
                "group37-shard6of12",
                "group37-shard7of12",
                "group37-shard8of12",
                "group37-shard9of12",
                "group37-shard10of12",
                "group37-shard11of12",
                "group37-shard12of12"
            ],
            "weights": [
                {
                    "dtype": "float32",
                    "name": "conv2d_22/kernel",
                    "shape": [
                        3,
                        3,
                        1280,
                        1024
                    ]
                }
            ]
        },
        {
            "paths": [
                "group38-shard1of1"
            ],
            "weights": [
                {
                    "dtype": "float32",
                    "name": "conv2d_23/kernel",
                    "shape": [
                        1,
                        1,
                        1024,
                        425
                    ]
                },
                {
                    "dtype": "float32",
                    "name": "conv2d_23/bias",
                    "shape": [
                        425
                    ]
                }
            ]
        },
        {
            "paths": [
                "group39-shard1of1"
            ],
            "weights": [
                {
                    "dtype": "float32",
                    "name": "conv2d_3/kernel",
                    "shape": [
                        3,
                        3,
                        64,
                        128
                    ]
                }
            ]
        },
        {
            "paths": [
                "group40-shard1of1"
            ],
            "weights": [
                {
                    "dtype": "float32",
                    "name": "conv2d_4/kernel",
                    "shape": [
                        1,
                        1,
                        128,
                        64
                    ]
                }
            ]
        },
        {
            "paths": [
                "group41-shard1of1"
            ],
            "weights": [
                {
                    "dtype": "float32",
                    "name": "conv2d_5/kernel",
                    "shape": [
                        3,
                        3,
                        64,
                        128
                    ]
                }
            ]
        },
        {
            "paths": [
                "group42-shard1of1"
            ],
            "weights": [
                {
                    "dtype": "float32",
                    "name": "conv2d_6/kernel",
                    "shape": [
                        3,
                        3,
                        128,
                        256
                    ]
                }
            ]
        },
        {
            "paths": [
                "group43-shard1of1"
            ],
            "weights": [
                {
                    "dtype": "float32",
                    "name": "conv2d_7/kernel",
                    "shape": [
                        1,
                        1,
                        256,
                        128
                    ]
                }
            ]
        },
        {
            "paths": [
                "group44-shard1of1"
            ],
            "weights": [
                {
                    "dtype": "float32",
                    "name": "conv2d_8/kernel",
                    "shape": [
                        3,
                        3,
                        128,
                        256
                    ]
                }
            ]
        },
        {
            "paths": [
                "group45-shard1of2",
                "group45-shard2of2"
            ],
            "weights": [
                {
                    "dtype": "float32",
                    "name": "conv2d_9/kernel",
                    "shape": [
                        3,
                        3,
                        256,
                        512
                    ]
                }
            ]
        }
    ]
}
